…
2021-10-26 18:27:01.696283: I tensorflow/core/common_runtime/gpu/gpu_device.cc:1247] Created TensorFlow device (/job:localhost/replica:0/task:0/device:GPU:0 with 7392 MB memory) -> physical GPU (device: 0, name: GeForce RTX 2080, pci bus id: 0000:17:00.0, compute capability: 7.5)
WARNING:tensorflow:`period` argument is deprecated. Please use `save_freq` to specify the frequency in number of batches seen.
WARNING:tensorflow:multiprocessing can interact badly with TensorFlow, causing nondeterministic deadlocks. For high performance data pipelines tf.data is recommended.
Model: "VoxCNN_V2"
_________________________________________________________________
Layer (type)                 Output Shape              Param #   
=================================================================
input_1 (InputLayer)         [(None, 128, 128, 128, 1) 0         
_________________________________________________________________
block1_conv1 (Conv3D)        (None, 128, 128, 128, 8)  224       
_________________________________________________________________
block1_conv2 (Conv3D)        (None, 128, 128, 128, 8)  1736      
_________________________________________________________________
block1_conv3 (Conv3D)        (None, 128, 128, 128, 8)  1736      
_________________________________________________________________
block1_pool (MaxPooling3D)   (None, 64, 64, 64, 8)     0         
_________________________________________________________________
block2_conv1 (Conv3D)        (None, 64, 64, 64, 16)    3472      
_________________________________________________________________
block2_conv2 (Conv3D)        (None, 64, 64, 64, 16)    6928      
_________________________________________________________________
block2_pool (MaxPooling3D)   (None, 32, 32, 32, 16)    0         
_________________________________________________________________
block3_conv1 (Conv3D)        (None, 32, 32, 32, 32)    13856     
_________________________________________________________________
block3_conv2 (Conv3D)        (None, 32, 32, 32, 32)    27680     
_________________________________________________________________
block3_pool (MaxPooling3D)   (None, 16, 16, 16, 32)    0         
_________________________________________________________________
block4_conv1 (Conv3D)        (None, 16, 16, 16, 64)    55360     
_________________________________________________________________
block4_conv2 (Conv3D)        (None, 16, 16, 16, 64)    110656    
_________________________________________________________________
block4_pool (MaxPooling3D)   (None, 8, 8, 8, 64)       0         
_________________________________________________________________
flatten (Flatten)            (None, 32768)             0         
_________________________________________________________________
fc1 (Dense)                  (None, 128)               4194432   
_________________________________________________________________
batch_normalization (BatchNo (None, 128)               512       
_________________________________________________________________
dropout (Dropout)            (None, 128)               0         
_________________________________________________________________
fc2 (Dense)                  (None, 64)                8256      
_________________________________________________________________
predictions (Dense)          (None, 2)                 130       
=================================================================
Total params: 4,424,978
Trainable params: 4,424,722
Non-trainable params: 256
_________________________________________________________________
2340 image(s) found in /home/pmeslaf/TFM/DATA/FIRST_VISIT_DATA_nougmented//Train/
300 image(s) found in /home/pmeslaf/TFM/DATA/FIRST_VISIT_DATA_nougmented//Validation/
64 image(s) found in /home/pmeslaf/TFM/DATA/FIRST_VISIT_DATA_nougmented//Test/
…
2021-10-26 18:27:40.177892: I tensorflow/stream_executor/platform/default/dso_loader.cc:44] Successfully opened dynamic library libcublas.so.10
WARNING:tensorflow:multiprocessing can interact badly with TensorFlow, causing nondeterministic deadlocks. For high performance data pipelines tf.data is recommended.
2021-10-26 18:28:15.580116: I tensorflow/stream_executor/platform/default/dso_loader.cc:44] Successfully opened dynamic library libcublas.so.10
Model: "VoxCNN"
_________________________________________________________________
Layer (type)                 Output Shape              Param #   
=================================================================
input_1 (InputLayer)         [(None, 128, 128, 128, 1) 0         
_________________________________________________________________
block1_conv1 (Conv3D)        (None, 128, 128, 128, 8)  224       
_________________________________________________________________
block1_conv2 (Conv3D)        (None, 128, 128, 128, 8)  1736      
_________________________________________________________________
block1_pool (MaxPooling3D)   (None, 64, 64, 64, 8)     0         
_________________________________________________________________
block2_conv1 (Conv3D)        (None, 64, 64, 64, 16)    3472      
_________________________________________________________________
block2_conv2 (Conv3D)        (None, 64, 64, 64, 16)    6928      
_________________________________________________________________
block2_pool (MaxPooling3D)   (None, 32, 32, 32, 16)    0         
_________________________________________________________________
block3_conv1 (Conv3D)        (None, 32, 32, 32, 32)    13856     
_________________________________________________________________
block3_conv2 (Conv3D)        (None, 32, 32, 32, 32)    27680     
_________________________________________________________________
block3_conv3 (Conv3D)        (None, 32, 32, 32, 32)    27680     
_________________________________________________________________
block3_pool (MaxPooling3D)   (None, 16, 16, 16, 32)    0         
_________________________________________________________________
block4_conv1 (Conv3D)        (None, 16, 16, 16, 64)    55360     
_________________________________________________________________
block4_conv2 (Conv3D)        (None, 16, 16, 16, 64)    110656    
_________________________________________________________________
block4_conv3 (Conv3D)        (None, 16, 16, 16, 64)    110656    
_________________________________________________________________
block4_pool (MaxPooling3D)   (None, 8, 8, 8, 64)       0         
_________________________________________________________________
flatten (Flatten)            (None, 32768)             0         
_________________________________________________________________
fc1 (Dense)                  (None, 128)               4194432   
_________________________________________________________________
batch_normalization (BatchNo (None, 128)               512       
_________________________________________________________________
dropout (Dropout)            (None, 128)               0         
_________________________________________________________________
fc2 (Dense)                  (None, 64)                8256      
_________________________________________________________________
predictions (Dense)          (None, 2)                 130       
=================================================================
Total params: 4,561,578
Trainable params: 4,561,322
Non-trainable params: 256
_________________________________________________________________
2340 image(s) found in /home/pmeslaf/TFM/DATA/FIRST_VISIT_DATA_nougmented//Train/
300 image(s) found in /home/pmeslaf/TFM/DATA/FIRST_VISIT_DATA_nougmented//Validation/
64 image(s) found in /home/pmeslaf/TFM/DATA/FIRST_VISIT_DATA_nougmented//Test/
…
